code_plate_detection_recognization/weights/LPRNet_Simplified.tflite (tflite, 484928 bytes, 32 tensors)

Const_31 f4 [64]
-0.17506285 -0.049484152 -3.4067452e-05 -0.00014788477 -0.29743993 -4.5241745e-06 0.03377074 -0.23722553
-1.3666494 -0.18542981 -6.480853e-05 -0.2507255 -0.5930574 0.0770424 -0.15243518 -7.311973e-05
1.9556073e-07 -0.2667069 -6.255238e-05 -0.26714814 0.0014241441 -0.42648643 -0.12368631 0.0075745024
-0.22104844 -0.00048312492 -0.00012558898 0.0011090167 -0.5137279 0.00029388696 -0.11542964 -0.23798192
-0.4704699 -0.474693 -0.17423284 -9.309129e-06 -9.200157e-05 -2.9985871e-05 0.00034484328 -0.00010275953
-0.3306213 0.021005511 -0.00035340013 -0.004457712 0.15487735 -0.00028007413 -0.00024033566 -0.11543751
-0.43977696 -0.00034808728 -1.1127245 -9.981147e-05 -0.10421634 -0.06407416 -3.352117e-05 -0.51930034
-0.00026140426 -3.3052016e-05 -0.00018340755 -0.00016190216 6.6943477e-07 -9.480913e-05 -0.000118491414 -7.4051895e-05
00000000: ad43 33be e5af 4abd a6e3 0eb8 8411 1bb9
00000010: 0c4a 98be 5dce 97b6 3053 0a3d 40eb 72be
00000020: 5eee aebf 50e1 3dbe d1e9 87b8 185f 80be
00000030: 9cd2 17bf 68c8 9d3d f817 1cbe db57 99b8
00000040: 53fb 5134 cf8d 88be 8e2e 83b8 a4c7 88be
00000050: 59aa ba3a 6e5c dabe 404f fdbd 8833 f83b
00000060: 865a 62be ee4b fdb9 89b0 03b9 6d5c 913a
00000070: ac83 03bf d714 9a39 6066 ecbd 88b1 73be
00000080: 6ee1 f0be f60a f3be 186a 32be 682e 1cb7
00000090: f7f0 c0b8 2b8a fbb7 15cc b439 9a80 d7b8
000000a0: 3247 a9be c013 ac3c 9048 b9b9 0012 92bb
000000b0: 2b98 1e3e ead6 92b9 9d02 7cb9 806a ecbd
000000c0: 722a e1be 7c7f b6b9 c26d 8ebf e051 d1b8
000000d0: 606f d5bd 5039 83bd 1599 0cb8 def0 04bf
000000e0: 160d 89b9 55a1 0ab8 1751 40b9 48c4 29b9
000000f0: 35b3 3335 44d4 c6b8 987e f8b8 4f4c 9bb8

Const_29 f4 [32]
0.3741537 0.26574677 1.4755462 -0.102348745 -0.32351816 0.6989199 1.1636083 0.04772295
0.50027174 -0.27651414 0.33214554 0.29994914 1.2581342 0.51439655 0.33719003 0.06901844
0.3342685 0.19714262 0.36983916 0.774982 -0.012624401 0.8743168 -0.43637034 -0.06682795
0.35378996 -0.10182358 0.70900613 0.27266616 0.3263442 -0.27415472 0.19724683 -0.5629848
00000000: 1391 bf3e f60f 883e b3de bc3f 389c d1bd
00000010: 2ca4 a5be 6aec 323f 1ef1 943f 2479 433d
00000020: cf11 003f 4393 8dbe fb0e aa3e ef92 993e
00000030: 8b0a a13f 7eaf 033f 2ca4 ac3e 8a59 8d3d
00000040: 3e25 ab3e c1df 493e 8f5b bd3e 3865 463f
00000050: 93d6 4ebc 3ad3 5f3f ef6b dfbe 18dd 88bd
00000060: f523 b53e e288 d0bd 6d81 353f e69a 8b3e
00000070: 9616 a73e 025e 8cbe 13fb 493e c61f 10bf

Const_27 f4 [32]
-0.43446076 0.56120574 0.4614642 0.59424937 0.33952588 -0.002704414 0.07496974 1.2325059
-0.42493063 0.24944738 0.94494396 0.4773711 0.7688767 0.78907865 0.23046292 -0.69782454
0.3910371 0.20539534 -1.0716741 -0.44735944 -0.00064444944 -0.07275727 0.94234157 0.6907929
-0.016008016 0.8462451 -0.36483994 0.38457036 -0.14162646 1.3474988 1.0788789 0.9896021
00000000: a471 debe 2eab 0f3f 0945 ec3e ba20 183f
00000010: 56d6 ad3e 8a3c 31bb bc89 993d c1c2 9d3f
00000020: 8290 d9be 226f 7f3e d9e7 713f fc69 f43e
00000030: 1ad5 443f 0f01 4a3f 79fe 6b3e a1a4 32bf
00000040: 0436 c83e 2853 523e 9e2c 89bf 4c0c e5be
00000050: 45f0 28ba c301 95bd 4c3d 713f ced7 303f
00000060: 3e23 83bc 85a3 583f 4dcc babe 68e6 c43e
00000070: 8706 11be d77a ac3f b418 8a3f 9056 7d3f

Const_25 f4 [32]
0.13057864 0.2869008 0.3611198 -0.023080362 0.1696767 0.47637793 0.013963857 0.003983785
0.2392294 0.42640045 0.3849266 -0.009376086 -0.5357898 -0.13384344 -0.53192466 -0.8074884
-0.4256769 0.06986345 0.19212218 0.047433823 -0.15206261 0.46929994 0.43130875 -0.1397456
0.39934546 0.19460145 0.3157366 -0.08900286 -0.64545596 0.16448651 0.40876302 0.07919043
00000000: 68b6 053e a9e4 923e b2e4 b83e 0713 bdbc
00000010: bbbf 2d3e cfe7 f33e a9c8 643c 698a 823b
00000020: 8df8 743e 2951 da3e 1915 c53e 289e 19bc
00000030: 8529 09bf 410e 09be 372c 08bf 8fb7 4ebf
00000040: 53f2 d9be 9214 8f3d adbb 443e f849 423d
00000050: 4db6 1bbe 1548 f03e 80d4 dc3e 7819 0fbe
00000060: 0277 cc3e 9a45 473e 3aa8 a13e 2247 b6bd
00000070: 9a3c 25bf 276f 283e 6349 d13e 982e a23d

Const_23 f4 [128]
0.10681217 0.004077533 -2.3271683e-05 0.060893416 0.29301012 -3.3259847e-05 0.7116094 0.09997289
0.3905387 0.40639806 -7.143101e-05 0.15843505 0.75783956 0.038114317 0.61741567 0.3725016
-0.00015798357 -8.4177327e-07 -0.00026902472 0.20776008 0.707072 -5.098272e-06 0.21364257 -0.00013389034
0.35137942 0.22693509 -0.00033349535 -4.3006107e-06 -1.8325755e-06 0.19747245 0.21155624 0.021291837
0.88007814 0.3945508 0.45359713 0.12357119 0.35777414 -0.00013650757 0.029762223 -9.6344065e-06
-7.1066504e-05 -5.497511e-05 0.30532536 0.21071666 0.2698775 -0.0001245635 1.1723654 -3.796485e-05
0.8865541 0.18055794 0.19160987 -0.00020072506 -0.00019126717 0.14566563 0.13867655 -0.00018357433
-0.02293183 0.104556106 0.9430256 0.08605692 -0.07549564 -5.9938116e-05 0.57615805 -0.017238367
-5.4660093e-05 0.57695466 -2.5321888e-05 -9.185327e-05 -8.414151e-06 0.35536557 -0.0791122 0.24551031
-9.67109e-05 -0.00013162871 -5.058836e-05 -0.00035971397 0.46714664 -0.00024858947 0.2498346 0.0863512
0.6324192 -0.00015265863 -9.894575e-05 0.050800707 0.6306861 0.21315774 -0.00023964314 -0.0001667359
0.3935516 0.46078497 0.53498614 0.09705448 0.0004595021 0.32255775 -0.00023395008 0.00043906536
-0.0001672659 -5.346364e-05 0.3342412 -8.812397e-05 0.12577483 0.33433372 0.31362745 4.902575e-06
0.025680244 0.1558696 0.23253721 0.23266232 0.00012915763 0.12796204 0.99790484 0.00032481513
0.63218385 -0.03491705 0.018483099 -0.00010140389 0.17399749 -0.0001480287 0.31247017 -0.00010979285
0.00040289416 0.17171644 0.19081482 -0.0001590384 -2.7208275e-08 0.1937454 -1.28435695e-05 -5.6072866e-05
00000000: 57c0 da3d d39c 853b 8f37 c3b7 606b 793d
00000010: 6c05 963e 7d80 0bb8 092c 363f 96be cc3d
00000020: b0f4 c73e 6813 d03e 3bcd 95b8 cc3c 223e
00000030: c601 423f c21d 1c3d f40e 1e3f 88b8 be3e
00000040: 64a8 25b9 38f6 61b5 e30b 8db9 0fbf 543e
00000050: ac02 353f d311 abb6 1ec5 5a3e ea64 0cb9
00000060: 01e8 b33e ac61 683e fdd8 aeb9 f74d 90b6
00000070: d1f6 f5b5 3836 4a3e 33a2 583e 386c ae3c
00000080: cd4c 613f 9002 ca3e e23d e83e e412 fd3d
00000090: 2c2e b73e 7923 0fb9 e8cf f33c 76a3 21b7
000000a0: 8a09 95b8 1395 66b8 9b53 9c3e 1cc6 573e
000000b0: 622d 8a3e 439d 02b9 1210 963f 733c 1fb8
000000c0: 36f5 623f 2ee4 383e 6135 443e b979 52b9
000000d0: e48e 48b9 5f29 153e 3a01 0e3e dc7d 40b9
000000e0: 88db bbbc 8321 d63d 206a 713f 9c3e b03d
000000f0: 759d 9abd 1066 7bb8 187f 133f 7a37 8dbc
00000100: d442 65b8 4db3 133f 576a d4b7 59a1 c0b8
00000110: 812a 0db7 7af2 b53e 9405 a2bd 0e67 7b3e
00000120: 45d1 cab8 d005 0ab9 d72e 54b8 fe97 bcb9
00000130: d82d ef3e 1d55 82b9 a4d4 7f3e e6d8 b03d
00000140: 3ae6 213f fd12 20b9 1881 cfb8 6714 503d
00000150: a574 213f 0646 5a3e b748 7bb9 d4d5 2eb9
00000160: 987f c93e 02ec eb3e daf4 083f 80c4 c63d
00000170: 54e9 f039 4a26 a53e 7f50 75b9 5b32 e639
00000180: 1964 2fb9 253e 60b8 aa21 ab3e 32cf b8b8
00000190: 1ecb 003e ca2d ab3e c793 a03e cc80 a436
000001a0: 605f d23c 489c 1f3e 3c1e 6e3e 083f 6e3e
000001b0: 7d6e 0739 7b08 033e b176 7f3f f34b aa39
000001c0: cdd6 213f 2e05 0fbd de69 973c cda8 d4b8
000001d0: 662c 323e 2738 1bb9 17fc 9f3e 9640 e6b8
000001e0: 8a3b d339 6fd6 2f3e f664 433e 8cc3 26b9
000001f0: a1b7 e9b2 3265 463e b67a 57b7 c82f 6bb8

Const_21 f4 [64]
-0.21135116 0.057893403 0.020703327 -0.030736137 -0.2419428 0.019164085 0.0013547203 -0.044678543
0.00060586404 0.13026847 -0.009885872 0.7313728 -0.0025729479 0.6267463 0.0027927314 0.0027538259
0.26977777 0.03208292 -0.0024001424 -0.06513368 -0.20245989 0.07269071 0.003490273 0.5808743
0.10303778 -0.00044012663 0.69772065 -0.0025332635 -0.0057573626 0.46816456 -0.03963294 -0.0045477413
-0.0043129986 -0.0013564626 -0.0018638802 -0.004089663 0.04184387 -0.13045831 -0.007113178 -0.0671264
-0.05511475 -0.15952161 -0.010283209 -0.12732753 -0.004856684 -0.001495275 -0.0025959734 0.10397516
-0.013859529 -0.01745041 0.05201609 -0.00073287025 0.02676432 0.59646446 0.14904055 -0.0206814
0.10586421 0.032383528 -0.04146723 0.92092746 -0.006916618 0.053086095 -0.002007492 -0.020415016
00000000: 706c 58be a221 6d3d 069a a93c 5aca fbbc
00000010: dabf 77be 00fe 9c3c df90 b13a d900 37bd
00000020: d9d2 1e3a 1965 053e 5af8 21bc 3f3b 3b3f
00000030: e79e 28bb 7272 203f 4206 373b 8879 343b
00000040: 5020 8a3e 6169 033d b54b 1dbb cf64 85bd
00000050: a551 4fbe dede 943d 10bd 643b 2eb4 143f
00000060: 7905 d33d ccc0 e6b9 d29d 323f 1c05 26bb
00000070: 42a8 bcbb 44b3 ef3e 2656 22bd 3805 95bb
00000080: 0e54 8dbb 55cb b1ba 714d f4ba 9402 86bb
00000090: 7a64 2b3d dd96 05be a915 e9bb 9179 89bd
000000a0: 01c0 61bd a259 23be e87a 28bc 2662 02be
000000b0: d124 9fbb 1afd c3ba 3521 2abb eef0 d43d
000000c0: 1413 63bc 2af4 8ebc d30e 553d 171e 40ba
000000d0: d940 db3c e5b1 183f 169e 183e 0a6c a9bc
000000e0: 56cf d83d 97a4 043d 8bd9 29bd e7c1 6b3f
000000f0: cca4 e2bb ce70 593d 2090 03bb 643d a7bc

Const_19 f4 [64]
-0.112875976 -0.00022954408 -0.02591874 -0.0009808667 0.00094740285 -5.4493896e-05 0.07632219 5.1929354e-05
0.014368057 0.14734162 -0.0023307272 0.11160821 -0.0031477185 -0.002603863 -0.0011861671 0.053457394
-0.019112827 0.02368867 0.0011055993 -0.000669221 -0.0019409403 -0.00033251432 -0.00092812796 0.057658464
-0.0016557802 0.012402597 0.30065218 0.053033516 -1.7476474e-05 0.020578576 0.28306317 -0.0030186693
0.09250613 -0.0031530878 0.029112633 0.0015532972 -0.0016484311 0.004505493 -0.00035975262 -0.00096281106
0.021379616 -0.00015516159 -0.009012969 0.002090065 -0.0007734057 0.02115187 -0.00015589855 -0.000767081
-0.17871939 0.00027828303 0.04886827 0.2058636 0.0012034199 -0.015416757 0.0037814935 0.0037448
-0.00088385516 -0.029854031 -0.0012962703 -0.0002509286 0.25389913 0.09944275 -0.0008862805 0.041333947
00000000: 852b e7bd c5b1 70b9 8a53 d4bc 6d90 80ba
00000010: 215b 783a 6090 64b8 cf4e 9c3d b8ce 5938
00000020: 0068 6b3c b9e0 163e 1dbf 18bb d892 e43d
00000030: f449 4ebb 92a5 2abb 2a79 9bba 24f6 5a3d
00000040: 8192 9cbc be0e c23c c2e9 903a a96e 2fba
00000050: 2667 feba 5155 aeb9 9d4d 73ba 482b 6c3d
00000060: c406 d9ba 4334 4b3c 15ef 993e ac39 593d
00000070: 719a 92b7 6794 a83c a8ed 903e ded4 45bb
00000080: db73 bd3d 09a4 4ebb 9e7d ee3c 0198 cb3a
00000090: 2b10 d8ba d1a2 933b 2e9d bcb9 2865 7cba
000000a0: 4e24 af3c dfb2 22b9 22ab 13bc 79f9 083b
000000b0: 61be 4aba b046 ad3c b378 23b9 ef15 49ba
000000c0: 3702 37be 84e6 9139 182a 483d e8cd 523e
000000d0: 12bc 9d3a 9196 7cbc efd2 773b 526b 753b
000000e0: 84b2 67ba 7190 f4bc 9de7 a9ba 118f 83b9
000000f0: 11ff 813e a4a8 cb3d 4755 68ba c94d 293d

Const_17 f4 [64]
0.015086535 0.01630221 -0.00022170626 -0.0017557918 0.025427496 -0.0104320785 -0.0007872572 0.00045644934
-0.00048487226 -0.000123411 -0.016117213 0.0014180074 -0.0014664156 0.008239344 -0.033153336 -0.0016326506
-0.00013133867 0.0004913866 -0.00025266866 -0.011249751 0.00017173478 0.00012078732 -0.0006144022 0.01756091
-0.00044699665 0.044000223 -0.00075935567 -0.0005884017 0.03780128 0.011834331 -0.0005370008 1.1138963e-05
0.0003316858 -0.0019251473 -0.00045895283 -0.05428001 0.001303583 0.0017331591 -0.00052762905 -0.0005517325
-0.0015130218 0.043883987 0.0060808607 -0.000983017 0.13068162 -0.01738135 0.03464818 0.00026184475
0.0010267071 -0.000511099 0.00060091086 -0.025075138 -0.0003891634 0.0007005186 -0.00022209987 0.0001357822
-0.0011925832 0.0073328833 -3.5062036e-05 0.03193114 0.001968885 -0.017944198 0.038942304 -0.00015094822
00000000: 842d 773c 368c 853c d279 68b9 9922 e6ba
00000010: 534d d03c 4feb 2abc f05f 4eba 984f ef39
00000020: 7436 feb9 e367 01b9 3f08 84bc 6fdc b93a
00000030: be34 c0ba 50fe 063c cbcb 07bd aafe d5ba
00000040: f5b7 09b9 66d0 003a 9d78 84b9 e050 38bc
00000050: b413 3439 334f fd38 d50f 21ba e6db 8f3c
00000060: e05a eab9 9439 343d 7f0f 47ba f83e 1aba
00000070: 84d5 1a3d c8e4 413c 83c5 0cba 7be1 3a37
00000080: 1de6 ad39 3955 fcba 9b9f f0b9 b754 5ebd
00000090: fddc aa3a 2b2b e33a 9650 0aba 24a2 10ba
000000a0: 9650 c6ba b2bf 333d f541 c73b 94d8 80ba
000000b0: 67d1 053e 5563 8ebc 40eb 0d3d 3548 8939
000000c0: 9392 863a 46fb 05ba 7286 1d3a 606a cdbc
000000d0: a108 ccb9 02a3 373a 7be3 68b9 c260 0e39
000000e0: 7450 9cba af48 f03b 930f 13b8 3aca 023d
000000f0: 6908 013b b6ff 92bc f781 1f3d db47 1eb9

Const_15 f4 [256]
-5.550359e-06 -0.00015800586 -4.3860136e-06 -2.6519247e-05 -1.9075282e-05 -0.00023331515 2.1739443e-05 -0.00011373984
-0.024734855 -0.0002627769 0.00069679494 -0.00012811254 -6.8315174e-05 0.00054808724 0.00022816639 -0.00017406714
-0.00012303278 -0.01537159 -0.00015765599 -0.0004945393 1.9384765e-06 5.6488418e-05 8.384703e-06 0.0005917031
-0.0002462844 -9.7704156e-05 0.0006479019 7.367311e-05 -9.1393986e-08 -3.0142972e-05 -3.1250183e-05 -0.00017973654
-0.00025290437 -8.395599e-05 0.69258976 -0.00016770443 -4.885403e-05 -3.6632723e-06 -0.0005234516 -0.04928418
-0.00022225341 -5.8456117e-05 -5.2122152e-05 -2.3402486e-05 -0.00046325327 0.00064119825 -0.0001233023 -0.00036527254
0.00010484969 -1.1253043e-05 0.0032094058 -1.1543339e-05 -0.0002709973 -0.00017602679 -5.4877735e-05 3.5017216e-05
-4.473771e-06 -3.5450885e-05 -8.712809e-06 0.0009140819 -0.0004285067 0.001035486 0.00024003325 -0.0002692769
0.00012368946 -5.8247997e-06 -3.982511e-05 -7.606798e-05 -0.037522342 8.7550055e-05 0.00055184605 -0.00019020986
0.00022788899 1.1997605e-05 0.00035779984 -0.054642506 -0.00026060967 -9.439001e-06 -0.0002495082 -6.744584e-05
1.7377855e-05 0.0007409298 -0.00051228516 0.0006159482 0.00013802217 -0.00014594379 -0.000102807426 -0.00010201314
-0.00013337286 0.00023159177 -0.00010300935 -4.0033956e-06 0.73550224 0.5564047 -1.9644835e-05 0.0003009066
-2.9901254e-05 -2.0840896e-05 5.1602918e-05 -2.148616e-05 -0.0002755702 -3.087027e-05 0.0004320374 -5.9101447e-05
0.5233945 0.0048278305 -0.00024937067 -4.8576107e-06 0.00039797573 0.4575709 7.627575e-05 0.0001412509
0.0006148461 9.561301e-06 -0.00020731469 -0.013186439 -6.0489016e-05 -0.00035329143 6.3456982e-06 0.00017632969
-0.00016227861 -0.00020977005 -0.00014740888 0.0005476197 0.003073263 0.00020197964 0.42189783 -0.00038425875
-4.233783e-05 -0.00020246328 -0.0005285821 -4.1766292e-05 0.8225765 -5.8007976e-05 0.0005770532 0.7334126
-2.0492453e-05 0.00068779517 -0.0003278089 -0.00016623088 -0.00021745708 -7.121806e-06 0.8693862 -3.2501062e-05
0.0028271817 0.00025190905 0.0005539104 -0.011697976 -0.00039690605 -0.00027283342 8.5330255e-05 -4.6099634e-05
-6.832147e-05 0.00012072818 0.00054832775 3.2058448e-05 -1.8525026e-05 -0.00016511948 -0.0003829748 9.514711e-05
0.0008363852 0.00014202631 -0.00013258663 -3.421994e-05 -0.00026408688 -4.056798e-05 0.6593686 0.00068609207
-0.00018679595 -4.6671586e-05 -0.00026080644 0.00030467636 -0.00045564328 0.00073710823 -0.00014979418 0.00042314813
-0.00047303562 0.00068710063 0.00050829805 0.00036735996 -3.958828e-05 -2.7020376e-05 -7.145273e-05 -0.00043158655
-2.4565556e-05 -0.000435046 -0.00034982292 -0.0003083538 -0.000579582 0.003324371 -2.2396938e-05 -0.0002825644
-6.0754323e-06 -3.0131594e-05 -0.04122471 -2.7358976e-05 -2.6162138e-06 -0.00037715823 -7.208894e-05 0.0009025362
4.4761855e-05 -9.123448e-05 -0.0002992969 9.192596e-05 0.00025116844 -2.7765834e-06 -1.9501438e-05 -0.0001428644
-5.484174e-05 0.00016246438 -8.876854e-05 0.00027733343 -0.00026105574 -0.00012848088 -6.446204e-05 -0.00012319721
6.1735773e-06 0.00061254745 0.0005291067 -0.08090842 0.0005806529 0.0011117784 -0.0003011931 -0.00013632199
-0.0004200006 0.00018817732 -0.000112628535 8.325443e-05 -3.0330016e-06 -0.00024373307 0.00057580724 0.00013759456
-4.6090023e-05 0.0003400305 -0.0005214048 -0.0002837045 0.0004598617 0.00092055724 2.7746605e-06 9.290522e-05
1.0001957e-05 -6.4287656e-06 -0.00052752916 -0.00017717878 -2.8971861e-05 -0.00030419815 0.00047016368 -2.501024e-07
-0.00023437054 0.00042216227 -0.0003623951 0.00013024626 -0.00012036293 -2.3662109e-05 -6.3438914e-05 -3.713249e-05
00000000: 393d bab6 60ae 25b9 922b 93b6 a675 deb7
00000010: db03 a0b7 0fa6 74b9 195d b637 9d87 eeb8
00000020: c0a0 cabc 52c5 89b9 1ea9 363a f355 06b9
00000030: 6e44 8fb8 83ad 0f3a f33f 6f39 cb85 36b9
00000040: 5c02 01b9 1fd9 7bbc 7550 25b9 f8a3 01ba
00000050: c616 0236 faed 6c38 06ac 0c37 861c 1b3a
00000060: bc1f 81b9 85e6 ccb8 f6d7 293a f380 9a38
00000070: 6044 c4b3 8adb fcb7 a112 03b8 a977 3cb9
00000080: 4098 84b9 8711 b0b8 904d 313f d1d9 2fb9
00000090: 9ee8 4cb8 8ad6 75b6 3e38 09ba 35de 49bd
000000a0: b20c 69b9 c72e 75b8 bc9d 5ab8 7550 c4b7
000000b0: cde0 f2b9 1616 283a b64a 01b9 0d82 bfb9
000000c0: c0e2 db38 74cb 3cb7 e554 523b 43aa 41b7
000000d0: a414 8eb9 d593 38b9 852c 66b8 73df 1238
000000e0: 661d 96b6 19b1 14b8 3b2d 12b7 ff9e 6f3a
000000f0: 32a9 e0b9 25b9 873a 6fb1 7b39 bc2d 8db9
00000100: a3b2 0139 a672 c3b6 e309 27b8 b086 9fb8
00000110: 07b1 19bd 149b b738 c3a9 103a 1273 47b9
00000120: 7cf5 6e39 5249 4937 1597 bb39 d2d0 5fbd
00000130: 70a2 88b9 335c 1eb7 6cd0 82b9 b671 8db8
00000140: a9c6 9137 f53a 423a e04a 06ba 9677 213a
00000150: 0bba 1039 7d08 19b9 519a d7b8 e3ef d5b8
00000160: 01da 0bb9 71d7 7239 b906 d8b8 e854 86b6
00000170: e049 3c3f 8a70 0e3f f6ca a4b7 00c3 9d39
00000180: 74d4 fab7 7cd3 aeb7 3670 5838 2d3d b4b7
00000190: 687a 90b9 b37a 01b8 1483 e239 b2e3 77b8
000001a0: 2ffd 053f c732 9e3b f7bd 82b9 8ffe a2b6
000001b0: 66a7 d039 bc46 ea3e 3bf6 9f38 c01c 1439
000001c0: a02d 213a 7a69 2037 9d62 59b9 ef0b 58bc
000001d0: 96b5 7db8 f939 b9b9 22ed d436 24e5 3839
000001e0: 5529 2ab9 b8f5 5bb9 c591 1ab9 238e 0f3a
000001f0: cc68 493b 7fca 5339 fe02 d83e 5676 c9b9
00000200: e693 31b8 534c 54b9 8b90 0aba 372e 2fb8
00000210: 6094 523f 974d 73b8 6245 173a eec0 3b3f
00000220: 35e7 abb7 274d 343a c4dd abb9 434e 2eb9
00000230: 3105 64b9 d9f7 eeb6 1890 5e3f c051 08b8
00000240: 3d48 393b a912 8439 4c34 113a dea8 3fbc
00000250: d417 d0b9 150b 8fb9 55f3 b238 1b5b 41b8
00000260: cf47 8fb8 732f fd38 a7bd 0f3a 7f76 0638
00000270: 3166 9bb7 ec23 2db9 02ca c8b9 b789 c738
00000280: dc40 5b3a e6ec 1439 f406 0bb9 6187 0fb8
00000290: 2475 8ab9 8927 2ab8 61cc 283f dcda 333a
000002a0: a8de 43b9 3cc1 43b8 d9bc 88b9 f8bc 9f39
000002b0: 68e3 eeb9 7f3a 413a 1212 1db9 fbd9 dd39
000002c0: c401 f8b9 8b1e 343a 4e3f 053a 389a c039
000002d0: 980b 26b8 d1a9 e2b7 e4d8 95b8 9146 e2b9
000002e0: 2112 ceb7 e316 e4b9 7068 b7b9 8caa a1b9
000002f0: 17ef 17ba b1dd 593b 0fe1 bbb7 2725 94b9
00000300: 91db cbb6 1bc3 fcb7 3edb 28bd f480 e5b7
00000310: 3692 2fb6 52bd c5b9 742e 97b8 2e98 6c3a
00000320: adbe 3b38 2355 bfb8 f3ea 9cb9 60c8 c038
00000330: 42af 8339 5755 3ab6 0597 a3b7 dfcd 15b9
00000340: df05 66b8 335b 2a39 3f29 bab8 1067 9139
00000350: 4fde 88b9 d3b8 06b9 cb2f 87b8 802e 01b9
00000360: a026 cf36 5d93 203a c0b3 0a3a 50b3 a5bd
00000370: f536 183a 18b9 913a 74e9 9db9 a8f1 0eb9
00000380: 8733 dcb9 7751 4539 fc32 ecb8 e298 ae38
00000390: 928a 4bb6 9992 7fb9 c5f1 163a 4247 1039
000003a0: c950 41b8 1f46 b239 e2ae 08ba 2cbe 94b9
000003b0: 9819 f139 8d51 713a 4e34 3a36 1cd6 c238
000003c0: 14ce 2737 adb6 d7b6 e249 0aba 11c9 39b9
000003d0: 9908 f3b7 c97c 9fb9 4d80 f639 d045 86b4
000003e0: 5dc1 75b9 a955 dd39 d9ff bdb9 b792 0839
000003f0: 5b6b fcb8 fe7d c6b7 820a 85b8 b5be 1bb8

Const_13 f4 [64]
0.0005941516 1.3838844 0.0008366494 -0.00063940964 -0.0031330928 -0.0050074253 0.002868629 6.0736816e-06
-0.00034604504 -0.0051557845 -0.0006676734 -0.0015276195 0.0014332708 -0.0031621968 -0.0010427227 1.30830485e-05
0.7522638 -0.00097449275 -0.0029012838 -0.0041974895 0.7636717 -0.0022449277 -9.9063654e-05 -0.00029371172
-0.0012327025 -0.003657254 -0.00047040445 -0.0008072045 -9.349565e-05 0.00013815274 0.0002333861 -7.20283e-05
0.2697051 -0.0013444888 -0.007766141 -0.00025249374 -0.0011006319 -0.0050350623 0.7422068 0.9816351
-0.00015246547 0.00041160377 0.0015793386 2.3881063e-05 0.49117023 0.0012352797 -0.49616235 0.8108435
0.38287178 0.00026343728 -0.00085047353 -0.0010918283 -0.00091054436 0.002092314 -0.000680684 -0.00093659107
-0.044240605 -0.00044296074 -0.00050799147 -0.00038763645 -0.03818129 0.0023692655 -0.026028711 -6.910781e-05
00000000: d7c0 1b3a 2023 b13f 9752 5b3a 0e9e 27ba
00000010: 9354 4dbb 5415 a4bb 9cff 3b3b 87cc cb36
00000020: 616d b5b9 dbf1 a8bb ce06 2fba 683a c8ba
00000030: 96dc bb3a dc3c 4fbb f8ab 88ba 447f 5b37
00000040: 5c94 403f 1a75 7fba 7723 3ebb 188b 89bb
00000050: fd7f 433f a31f 13bb 65c0 cfb8 52fd 99b9
00000060: a292 a1ba 8aae 6fbb 9ea0 f6b9 949a 53ba
00000070: 1813 c4b8 18dd 1039 1bb9 7439 e60d 97b8
00000080: c916 8a3e 8f39 b0ba 1d7b febb 2361 84b9
00000090: 1443 90ba 2afd a4bb 4401 3e3f 704c 7b3f
000000a0: 23df 1fb9 86cc d739 cf01 cf3a 3154 c837
000000b0: aa7a fb3e 1ce9 a13a fe08 febe 7193 4f3f
000000c0: c507 c43e f41d 8a39 50f2 5eba ae1b 8fba
000000d0: 99b1 6eba 341f 093b ee6f 32ba 9085 75ba
000000e0: a335 35bd 2f3d e8b9 bb2a 05ba af3b cbb9
000000f0: fc63 1cbd ae45 1b3b 2a3a d5bc f9ed 90b8

Const_11 f4 [64]
-0.0006957972 0.041389003 0.0024582285 4.9505692e-05 -0.061282 -0.0040794644 -0.0019162109 0.6209445
-0.0047761975 -0.0005040044 -0.00034171774 0.56027585 -0.000423429 -2.3277224e-05 -0.029698925 -0.0013598206
-0.00033823794 0.83692074 -0.00086872507 -0.0006508664 0.001335555 0.26377606 -0.0011363624 0.11414251
-0.0008327971 -0.0005477498 -0.0013391903 0.06742969 0.4995559 -0.024762526 -0.0024202543 -0.00016273295
-0.00085898786 -0.0005609856 0.04255474 -0.0006883944 0.10683932 0.064292476 -0.00079483644 0.6785728
-0.0026212551 -0.00026000498 0.75253105 -0.00040305394 9.485786e-05 -0.005727587 -0.0010698104 -0.0006768487
0.0002839512 0.6349999 -0.000237713 -0.001216822 -0.0026940363 -0.0012068263 -0.00081129436 -0.00048562328
-0.00029617612 -0.0040400205 -0.0004438889 -0.00056731136 -0.009135263 0.4289051 0.0005337549 0.0009638569
00000000: 2966 36ba 8487 293d 3b1a 213b 55a4 4f38
00000010: d602 7bbd 07ad 85bb 5e29 fbba 38f6 1e3f
00000020: a681 9cbb 2a1f 04ba 9428 b3b9 3d6e 0f3f
00000030: aeff ddb9 7543 c3b7 294b f3bc 023c b2ba
00000040: 8755 b1b9 7040 563f 27bb 63ba e89e 2aba
00000050: ca0d af3a a80d 873e fff1 94ba 8cc3 e93d
00000060: 1150 5aba de96 0fba c587 afba 9418 8a3d
00000070: cac5 ff3e c8da cabc 219d 1ebb 4ba3 2ab9
00000080: b32d 61ba 1b0f 13ba e14d 2e3d 5e75 34ba
00000090: 93ce da3d c6ab 833d 925c 50ba f2b6 2d3f
000000a0: 5dc9 2bbb 4751 88b9 e0a5 403f fc50 d3b9
000000b0: 6dee c638 7bae bbbb e138 8cba 8c6e 31ba
000000c0: 49df 9439 5a8f 223f 9942 79b9 c57d 9fba
000000d0: 6e8e 30bb 5f2e 9eba 0bad 54ba 419b feb9
000000e0: 1648 9bb9 2662 84bb c2b9 e8b9 9fb7 14ba
000000f0: 12ac 15bc 7399 db3e afeb 0b3a 57ab 7c3a

Const_9 f4 [64]
0.0004534878 0.36481982 -0.0009788271 -0.057505496 0.0018016745 -0.0019157206 -0.000212568 -0.0017801694
0.09133371 -0.00045207728 -0.0038875719 -0.0041543874 -0.008764453 0.01501403 -9.163672e-05 -0.0009792653
0.034380905 -0.00066419394 -0.1075829 0.08390874 0.22074687 -0.046791494 -0.033125963 0.08872991
-0.0019978592 0.00037871228 -0.0029742823 -0.06251755 0.19952603 0.23095238 0.044775613 0.019228943
-0.00068551395 -0.0028633866 0.000565854 -0.0009629361 0.0006242927 0.38836816 -0.0032974856 -0.30984733
-0.00039140502 -0.014232738 -0.0011850168 0.025835522 -0.17332068 0.21706922 -0.08087688 0.21930903
0.08756804 -0.0009328795 -0.40831813 0.15265916 0.3164632 0.019539425 -0.0033723803 -9.499864e-05
0.17660342 -0.00023698887 0.11322818 0.16594152 -0.0034721477 -0.104110114 -0.0005935395 -0.00944079
00000000: 1ac2 ed39 aac9 ba3e fd4b 80ba e28a 6bbd
00000010: 2a26 ec3a eb18 fbba cae4 5eb9 9354 e9ba
00000020: 2b0d bb3d c904 edb9 a2c6 7ebb 8721 88bb
00000030: c898 0fbc 68fd 753c 172d c0b8 b15a 80ba
00000040: fed2 0c3d 4d1d 2eba 6c54 dcbd 58d8 ab3d
00000050: 780b 623e 70a8 3fbd 17af 07bd 07b8 b53d
00000060: 84ee 02bb e78d c639 2dec 42bb 3409 80bd
00000070: 8d50 4c3e c87e 6c3e a266 373d 0486 9d3c
00000080: 10b4 33ba a8a7 3bbb d255 143a 8c6d 7cba
00000090: 93a7 233a 31d8 c63e a11a 58bb 4fa4 9ebe
000000a0: 7e35 cdb9 6e30 69bc 9152 9bba 04a5 d33c
000000b0: fa7a 31be 6547 5e3e c7a2 a5bd 8c92 603e
000000c0: df56 b33d 7c8c 74ba 130f d1be af52 1c3e
000000d0: 7707 a23e 2511 a03c 2703 5dbb 023a c7b8
000000e0: 87d7 343e 3780 78b9 2de4 e73d 93ec 293e
000000f0: f98c 63bb af37 d5bd c397 1bba 8bad 1abc

Const_7 f4 [256]
0.0015291175 2.9265348e-05 -1.3434401e-06 -2.2279685e-06 -0.0002746083 -2.5446625e-06 -2.6853374e-07 -2.7716635e-07
-3.7067325e-06 -5.3580953e-07 -1.995687e-06 -5.4502476e-07 0.25827122 -1.4121971e-05 -4.2175807e-06 -2.4499839e-06
0.0008985555 -8.378318e-09 -4.3113684e-07 -5.31317e-07 -0.00043148978 3.0244531e-05 2.9402714e-05 2.9534865e-05
0.0003828422 -2.535881e-06 -1.1396113e-06 1.8645402e-05 0.80309916 3.0240093e-05 -2.962962e-08 -6.360755e-08
0.74508816 -2.9869935e-07 -2.6854136e-07 2.9534714e-05 -9.914254e-05 6.7255482e-06 -2.6004518e-06 -4.1601797e-06
-0.0003816322 -1.7730787e-06 -8.38402e-09 -8.64799e-06 -0.00049347105 -4.4379163e-08 -3.5380303e-08 -6.3549955e-08
-2.1901662e-06 -7.564192e-08 1.8645922e-05 3.0636453e-05 0.6819111 -0.606753 2.1320799e-05 3.2128213e-05
0.00018370783 -2.963131e-08 -1.0756529e-08 -2.580451e-07 0.19729522 2.3207485e-05 2.8846252e-05 -4.4244214e-07
-8.878344e-05 3.2128348e-05 1.8647745e-05 -4.4957837e-08 -0.000113004724 -4.4343576e-08 -1.924835e-06 -1.5117889e-06
0.7859021 -9.938071e-07 -1.6162851e-06 -6.375633e-08 -0.0003314619 -1.7507143e-06 -1.3944596e-06 -4.2878864e-07
-0.00017447205 -8.055717e-09 -7.015246e-08 -4.1626117e-06 0.5149167 -7.3769286e-07 -2.306181e-06 -4.4070422e-08
-0.00055769825 -8.231071e-07 -1.61724e-06 -1.9961453e-06 -0.00025286924 -8.314821e-06 -2.5455068e-07 -1.62755e-07
-0.0003691799 1.9310608e-05 -1.750844e-06 6.725376e-06 0.75449884 1.8645198e-05 -2.5359998e-06 -9.829329e-07
-9.959815e-05 2.124732e-05 -3.966525e-08 -5.7614607e-06 -0.00017623373 -4.419677e-07 -1.7419037e-06 -2.685272e-07
-0.22632802 -1.9988597e-06 -7.409521e-08 -3.062072e-10 -0.00018281555 -6.990017e-08 2.924129e-05 -5.858193e-07
-3.4096647e-05 -2.1293354e-07 -2.5772256e-06 -8.658834e-06 -2.568591e-05 -2.5595762e-08 -1.1856736e-07 -7.271428e-08
0.7348392 -3.1277783e-10 -2.4404799e-06 -4.532536e-08 -0.0005481836 4.695641e-06 1.3162577e-05 -4.3825634e-07
0.5517047 -1.1311946e-05 -4.403611e-08 -5.2793314e-07 0.00045118548 -3.0934146e-09 -4.13724e-06 -1.6162999e-06
-2.462753e-05 -6.985113e-08 -1.4620699e-05 -1.9978022e-06 0.814177 -2.53607e-06 -1.342641e-05 -7.795088e-09
0.0002754122 -4.929115e-06 -1.5729451e-07 -8.087218e-09 0.0006047855 -2.842694e-06 2.3213286e-05 -5.8108344e-07
-0.00026427984 2.1264814e-05 -2.6777147e-05 -2.5352295e-10 0.0009895242 1.3118824e-05 6.725909e-06 2.840684e-05
0.7846424 -2.5545517e-06 3.0242134e-05 -2.011084e-06 -4.442571e-05 -6.3550864e-08 -1.2470569e-05 -2.560607e-10
-0.00011673073 -1.1643269e-07 2.8296208e-05 2.1612124e-05 -0.00046480866 -4.201257e-06 2.8845663e-05 -1.7732743e-06
-5.127103e-05 1.86459e-05 -2.4469434e-06 -3.1197126e-06 -0.07951596 -4.4821018e-08 -1.617347e-06 1.8647455e-05
-0.00034631192 -9.360066e-07 -1.7699307e-07 -1.6164329e-06 -0.0006331322 -8.309373e-08 -2.5360982e-06 -8.384063e-09
1.0398853 -1.3519184e-06 1.6240741e-05 6.7253804e-06 0.5819836 -1.7686695e-08 7.884336e-06 -2.5444172e-07
-0.00033275614 -1.0873154e-06 -1.861251e-07 -1.6129461e-06 -0.00029547486 -7.3287914e-08 -7.312324e-08 2.1405185e-05
0.8312902 -2.1891371e-06 -2.564397e-10 -4.1120265e-06 0.5533576 -5.385187e-10 -2.6340515e-06 -2.6764268e-05
-0.0003396964 2.9900668e-05 -2.571845e-07 -1.6167903e-06 1.0646755 -3.0952605e-09 -1.6123373e-06 -1.9959919e-06
0.46332505 2.9585799e-05 -7.276196e-08 -5.685589e-07 -7.017647e-06 -8.648859e-06 1.8892728e-05 -1.2123649e-06
-0.0003624902 -4.202491e-06 2.9534933e-05 -4.1384806e-06 -0.00036137077 -3.7399066e-05 -4.200806e-06 -1.6157329e-06
0.0009809983 -7.3033206e-08 1.00790385e-05 2.9534775e-05 0.00074715907 -1.6173534e-06 2.9534403e-05 -3.922412e-08
00000000: ab6c c83a db7e f537 4050 b4b5 3584 15b6
00000010: 4df9 8fb9 f8c4 2ab6 ff2a 90b4 74cd 94b4
00000020: 2ec1 78b6 8dd4 0fb5 a4ed 05b6 d14d 12b5
00000030: 203c 843e 67ed 6cb7 be84 8db6 676a 24b6
00000040: 0a8d 6b3a 3bf0 0fb2 ff76 e7b4 d49f 0eb5
00000050: 9439 e2b9 a3b5 fd37 d9a5 f637 a4c1 f737
00000060: 36b8 c839 1b2e 2ab6 bff4 98b5 b268 9c37
00000070: e897 4d3f 1bac fd37 3984 feb2 9f98 88b3
00000080: 19be 3e3f ed5c a0b4 0b2c 90b4 51c1 f737
00000090: bfea cfb8 05ac e136 6c83 2eb6 ac97 8bb6
000000a0: cf15 c8b9 85fa edb5 4f09 10b2 d616 11b7
000000b0: 485c 01ba 689b 3eb3 0ef5 17b3 f578 88b3
000000c0: c5fa 12b6 9670 a2b3 d069 9c37 a47f 0038
000000d0: ba91 2e3f 2a54 1bbf 11da b237 68c1 0638
000000e0: b2a1 4039 f187 feb2 b7cb 38b2 7389 8ab4
000000f0: c207 4a3e b2ad c237 dbfa f137 c988 edb4
00000100: 3f31 bab8 8dc1 0638 ba6d 9c37 aa17 41b3
00000110: f3fc ecb8 4774 3eb3 6a2c 01b6 ace8 cab5
00000120: e130 493f f462 85b5 22ef d8b5 6aea 88b3
00000130: 10c8 adb9 16fa eab5 4429 bbb5 4334 e6b4
00000140: 7cf2 36b9 6b65 0ab2 b9a6 96b3 90ac 8bb6
00000150: 95d1 033f de05 46b5 e3c3 1ab6 f147 3db3
00000160: 7f32 12ba 7df3 5cb5 f10f d9b5 84f5 05b6
00000170: 8993 84b9 e27f 0bb7 2ea9 88b4 c1c1 2eb4
00000180: 7d8e c1b9 37fd a137 8bfe eab5 8aaa e136
00000190: d626 413f 4268 9c37 2530 2ab6 51ed 83b5
000001a0: 5adf d0b8 463c b237 675c 2ab3 9252 c1b6
000001b0: 62cb 38b9 9447 edb4 5bcb e9b5 192a 90b4
000001c0: 88c2 67be 2624 06b6 461e 9fb3 d556 a8af
000001d0: 2db2 3fb9 061c 96b3 314b f537 3241 1db5
000001e0: ff02 0fb8 baa2 64b4 66f4 2cb6 6945 11b7
000001f0: 1278 d7b7 addd dbb2 189f feb3 1927 9cb3
00000200: 6c1e 3c3f 91f3 abaf 20c7 23b6 c3ab 42b3
00000210: fbb3 0fba 408f 9d36 d6d4 5c37 7e49 ebb4
00000220: 853c 0d3f 70c8 3db7 3722 3db3 4ab7 0db5
00000230: 178d ec39 ed93 54b1 9fd2 8ab6 a4ef d8b5
00000240: 3897 ceb7 1101 96b3 6d4b 75b7 fb11 06b6
00000250: e76d 503f 5a31 2ab6 fe41 61b7 29eb 05b2
00000260: 3365 9039 c764 a5b6 c9e4 28b4 f6ef 0ab2
00000270: 788a 1e3a 1cc5 3eb6 27ba c237 c0fb 1bb5
00000280: 0a8f 8ab9 d761 b237 7c9f e0b7 2f60 8baf
00000290: ecb2 813a ec18 5c37 1eaf e136 394b ee37
000002a0: 53de 483f dd6e 2bb6 7db0 fd37 29f6 06b6
000002b0: be55 3ab8 7579 88b3 b038 51b7 57c5 8caf
000002c0: 55cd f4b8 8c09 fab3 a55d ed37 af4b b537
000002d0: 90b1 f3b9 86f8 8cb6 97f9 f137 3e01 eeb5
000002e0: d90b 57b8 c469 9c37 2b36 24b6 415c 51b6
000002f0: 43d9 a2bd 3b81 40b3 9f13 d9b5 1b6d 9c37
00000300: 3391 b5b9 e241 7bb5 7c0b 3eb4 36f4 d8b5
00000310: c8f8 25ba 4371 b2b3 d631 2ab6 8009 10b2
00000320: f61a 853f 9073 b5b5 ba3c 8837 94aa e136
00000330: e1fc 143f 74ed 97b2 f746 0437 349a 88b4
00000340: c675 aeb9 dfef 91b5 aed9 47b4 687c d8b5
00000350: f7e9 9ab9 7562 9db3 ed07 9db3 498f b337
00000360: 6fcf 543f 17e9 12b6 aefa 8caf 0afa 89b6
00000370: d8a8 0d3f e206 14b0 a9c4 30b6 d483 e0b7
00000380: 4719 b2b9 32d3 fa37 2b13 8ab4 7e00 d9b5
00000390: 4947 883f 66b4 54b1 7d67 d8b5 e1f2 05b6
000003a0: f138 ed3e 052f f837 4f41 9cb3 129f 18b5
000003b0: 2179 ebb6 911a 11b7 d37b 9e37 8ab8 a2b5
000003c0: 9c0c beb9 1f03 8db6 c9c1 f737 47dd 8ab6
000003d0: 5d76 bdb9 f1dc 1cb8 a6f4 8cb6 29dc d8b5
000003e0: d794 803a 6ed6 9cb3 2419 2937 72c1 f737
000003f0: ffdc 433a d713 d9b5 a6c0 f737 6077 28b3

Const_5 f4 [256]
0.000108400745 -3.908202e-05 -9.1723174e-05 -7.088056e-06 -2.586827e-05 -6.532799e-05 -0.00056778983 -0.0002505225
0.0034337528 0.4895582 -0.00019822668 0.16524938 -4.7354097e-05 -6.708432e-06 -5.5129112e-05 0.00040875076
0.55233705 -0.0002180123 0.2959144 0.008099493 0.00010422117 -0.00046465365 -0.00036529158 -5.456625e-05
-0.00025933282 -0.0005305494 -0.00031648722 -1.5932884e-06 -5.5665358e-05 -1.6240963e-05 -0.13262519 -0.00027457348
-0.00016931008 -3.455831e-05 -0.00010325654 -0.00010609873 -1.1313498e-05 0.00041170695 0.00053435384 -0.00024450003
-2.0037147e-05 -0.00021733053 -0.00021192897 -0.00048063393 0.5517633 -5.6898393e-06 0.0001103702 -0.00027867782
-0.31785238 0.03339351 -7.497148e-05 -0.000104897605 -4.2797743e-05 -0.00045801396 -0.00017204089 -0.00040380034
0.06883742 -4.4143137e-05 0.2672264 -0.20754388 0.40372303 -0.38155016 -0.00016588415 0.00037829764
1.0621286e-05 -4.7662823e-05 -0.35007933 -8.776403e-06 -0.0001905295 0.45211375 -1.003187e-05 -9.919293e-05
-0.13302037 -0.00031693288 -0.00033926844 -0.13075481 -1.6672755e-05 -7.082144e-05 0.3281705 -0.00013836376
-0.00011944275 1.1442179e-05 -0.0004075554 -0.00020169464 -0.00024081786 -0.00012252064 0.15138744 3.6091264e-05
2.2856382e-07 -6.616616e-05 -0.00047117248 -0.00024224882 -2.840653e-06 -0.0003572918 -0.0001814938 -1.5720045e-05
-0.0006235949 -0.00020770579 -0.00014037767 -6.543876e-06 -0.00016423399 -0.00031736222 -0.49204358 -0.00010426763
-0.00011713655 -3.7711532e-05 -2.499743e-05 -7.462678e-05 -0.00040915774 -0.00011619663 -0.0002367532 -9.500358e-05
-5.186291e-05 -0.00028868424 -0.00017896692 7.2662665e-06 -4.583939e-05 -0.00022444672 0.262906 -4.3277414e-05
-0.22657236 0.0001815724 -0.00021595779 -0.0003049269 -2.7396754e-05 -0.00023615881 -0.00017359287 -0.00014780997
-0.0002873498 0.000329145 -0.00021788527 -8.804309e-05 -9.0345624e-05 -0.00042430157 -0.000204407 -0.0001615781
-0.00014801466 -0.00014314077 -1.9968003e-05 -0.0001355369 -0.5527461 -0.00040703427 -0.00011109576 -0.0005008281
-2.9685782e-06 -2.0544681e-05 -0.00011285029 0.00033573268 -0.00016485447 -0.36527455 -6.208014e-05 -0.0003204534
-1.671229e-05 -3.6162994e-06 -0.00032154535 -0.0004002452 -0.00023905495 -0.00050484715 -6.352371e-06 -0.0003161941
-0.00013548767 -1.1097693e-05 -7.701997e-05 -0.00013461646 -6.7382134e-05 -0.050263133 -3.4288198e-05 -0.0002581611
-2.350203e-05 -0.00026089605 -0.00029870114 -0.00015084638 0.0004644583 -0.00021965518 5.992426e-05 0.00044861715
-0.00015406343 -0.00014516931 -0.00021694052 0.233991 -0.00012272388 -0.0001466782 -9.3947245e-05 -0.044465512
-0.00010723603 -0.00049175613 -3.7345042e-05 -1.8932105e-05 9.11136e-05 -0.00015684357 -0.0004245049 -0.00028399855
-0.0005751411 -7.070293e-05 -1.4658187e-05 0.00027329658 0.40070063 -0.00011184678 -7.63904e-05 -0.00030762292
0.19456719 -0.00017800793 0.000778729 0.29708073 6.5171036e-05 -0.00026956564 -4.9468938e-05 0.3162197
-1.6120754e-05 -0.00015161476 6.8195845e-06 0.45186314 -1.2916829e-05 0.000550962 3.4894434e-05 -0.00019828435
-0.00014633132 -1.7473014e-05 0.32647198 -8.716259e-05 -0.00037041743 -0.000395218 -0.00037468757 -7.16749e-06
-0.00012887595 -0.0005422306 0.30168992 -0.000119207776 -2.9866487e-05 0.31794912 -0.00040570836 -0.00021345317
-0.00015179973 0.47806808 -0.00048426594 0.0007776637 -0.000536619 -0.00012549998 -0.00035117962 1.0114019
-0.00019245986 -0.00021025735 -0.00025246607 -8.152708e-06 -0.00032349833 -0.00018913146 -7.748382e-05 -0.00016883101
-6.1877013e-06 -9.778378e-05 -0.0002615183 2.8354067e-05 -0.00037325453 -0.00020784613 -0.000178148 -1.2939645e-05
00000000: 3555 e338 00ec 23b8 815b c0b8 f0d5 edb6
00000010: b0ff d8b7 b300 89b8 bbd7 14ba 9058 83b9
00000020: d008 613b 5fa7 fa3e 12db 4fb9 2237 293e
00000030: 139e 46b8 fe18 e1b6 6f3a 67b8 994d d639
00000040: f665 0d3f 3b9a 64b9 1882 973e bcb3 043c
00000050: 5191 da38 c29c f3b9 9b84 bfb9 11de 64b8
00000060: 10f7 87b9 9114 0bba 32ee a5b9 f9d8 d5b5
00000070: 397a 69b8 343d 88b7 e6ce 07be a1f4 8fb9
00000080: d488 31b9 b4f2 10b8 6f8b d8b8 5281 deb8
00000090: 1bcf 3db7 5fda d739 e113 0c3a 3d30 80b9
000000a0: 7215 a8b7 38e3 63b9 4039 5eb9 98fd fbb9
000000b0: 5c40 0d3f 59eb beb6 8d76 e738 811b 92b9
000000c0: 8cbd a2be a2c7 083d 023a 9db8 79fc dbb8
000000d0: ba81 33b8 9821 f0b9 e065 34b9 2ab5 d3b9
000000e0: a2fa 8c3d 5526 39b8 e6d1 883e 6286 54be
000000f0: c9b4 ce3e 8b5a c3be 30f1 2db9 4056 c639
00000100: 1332 3237 91e9 47b8 993d b3be 5d3e 13b7
00000110: e0c8 47b9 747b e73e 8e4e 28b7 cc05 d0b8
00000120: 7e36 08be 032a a6b9 d7df b1b9 97e4 05be
00000130: 78dc 8bb7 f985 94b8 f705 a83e bd15 11b9
00000140: 577d fab8 c9f7 3f37 29ad d5b9 fe7d 53b9
00000150: 0d84 7cb9 e278 00b9 4f05 1b3e b360 1738
00000160: 256b 7534 b0c2 8ab8 b307 f7b9 2c04 7eb9
00000170: 0ca2 3eb6 e552 bbb9 5f4f 3eb9 8ade 83b7
00000180: bf78 23ba 99cb 59b9 5832 13b9 7893 dbb6
00000190: 3a36 2cb9 a363 a6b9 23ed fbbe 42aa dab8
000001a0: 35a7 f5b8 732c 1eb8 92b1 d1b7 f380 9cb8
000001b0: 3984 d6b9 97ae f3b8 f440 78b9 a93c c7b8
000001c0: 6087 59b8 8b5a 97b9 11a9 3bb9 c1d0 f336
000001d0: ac43 40b8 7559 6bb9 9d9b 863e c584 35b8
000001e0: 9602 68be 7864 3e39 ba72 62b9 99de 9fb9
000001f0: 15d2 e5b7 66a1 77b9 7b06 36b9 70fd 1ab9
00000200: 70a7 96b9 1891 ac39 2278 64b9 c6a3 b8b8
00000210: f077 bdb8 cb74 deb9 1656 56b9 4a6d 29b9
00000220: 6234 1bb9 0f18 16b9 f680 a7b7 e91e 0eb9
00000230: c580 0dbf 3767 d5b9 15fc e8b8 014a 03ba
00000240: c937 47b6 5e57 acb7 0aaa ecb8 4705 b039
00000250: c9dc 2cb9 4405 bbbe 0531 82b8 8702 a8b9
00000260: 5f31 8cb7 8daf 72b6 1695 a8b9 00d8 d1b9
00000270: d3aa 7ab9 b857 04ba 7426 d5b6 dbc6 a5b9
00000280: b211 0eb9 3a30 3ab7 c885 a1b8 d527 0db9
00000290: 824f 8db8 b7e0 4dbd acd0 0fb8 cc59 87b9
000002a0: 3a26 c5b7 e0c8 88b9 fd9a 9cb9 842c 1eb9
000002b0: 8a82 f339 3d53 66b9 2f57 7b38 6034 eb39
000002c0: 168c 21b9 9738 18b9 877a 63b9 569b 6f3e
000002d0: 71af 00b9 a1cd 19b9 8b05 c5b8 7821 36bd
000002e0: e8e3 e0b8 32e9 00ba efa2 1cb8 63d0 9eb7
000002f0: 3e14 bf38 6076 24b9 1590 deb9 a4e5 94b9
00000300: 11c5 16ba 5946 94b8 6fec 75b7 3f49 8f39
00000310: a228 cd3e 488f eab8 c933 a0b8 7348 a1b9
00000320: 9f3c 473e a4a7 3ab9 9e23 4c3a f71a 983e
00000330: 6fac 8838 7d54 8db9 de7c 4fb8 8ce7 a13e
00000340: 0e3b 87b7 c7fa 1eb9 c9d3 e436 9b5a e73e
00000350: 5cb5 58b7 6f6e 103a 9d5b 1238 8dea 4fb9
00000360: 8470 19b9 0393 92b7 5627 a73e 0fcb b6b8
00000370: 9634 c2b9 4335 cfb9 b771 c4b9 4580 f0b6
00000380: e022 07b9 7b24 0eba 1a77 9a3e 30ff f9b8
00000390: cb89 fab7 3aca a23e 41b5 d4b9 66d2 5fb9
000003a0: 6e2c 1fb9 57c5 f43e 13e5 fdb9 21dc 4b3a
000003b0: e4ab 0cba a598 03b9 881e b8b9 9e75 813f
000003c0: 0dcf 49b9 8778 5cb9 6c5d 84b9 9dc7 08b7
000003d0: 369b a9b9 9751 46b9 cf7e a2b8 3b08 31b9
000003e0: f39f cfb6 4411 cdb8 641c 89b9 e5d9 ed37
000003f0: 60b1 c3b9 45f1 59b9 3dcd 3ab9 5a17 59b7

Const_3 f4 [68]
0.10128525 0.069219775 0.2047056 -0.011038614 0.36351767 0.26943856 -8.546731e-05 -0.38047
-0.00011687673 -0.00016374527 0.26002023 0.012966831 -0.03734265 -5.404868e-07 -0.29297802 -1.3990103e-05
-0.0001105022 -0.00019631484 0.03496234 -0.19707973 0.05195253 0.3203958 0.00017309989 -0.45830876
-0.35521567 -0.00024947245 -0.032101046 -0.20391901 -0.0010467768 -8.7052555e-05 0.90388596 -0.08457693
-0.11147198 -0.63246393 -0.00027593688 0.33405966 -0.39299208 0.3586856 -3.0623318e-07 0.12883647
-0.0004052943 1.7882385 0.08695028 -0.19099763 -0.120862484 0.99384236 -0.08076203 -0.00045988752
-0.028065238 -0.18139298 -0.07383823 0.39135292 -0.18598473 0.44595098 -0.6724697 0.6223589
-0.00019627254 0.15859425 -0.00013374434 -0.0003855362 -4.1791427e-06 -0.08659841 -0.1686099 0.11848371
0.0036446173 0.0006475089 -1.8888602e-05 -0.63545346
00000000: a46e cf3d 19c3 8d3d 589e 513e 4edb 34bc
00000010: fd1e ba3e daf3 893e ea3c b3b8 f7cc c2be
00000020: b71b f5b8 09b3 2bb9 5f21 853e d572 543c
00000030: 9bf4 18bd f815 11b5 3701 96be 09b7 6ab7
00000040: 6bbd e7b8 ddd9 4db9 ac34 0f3d 45cf 49be
00000050: 2dcc 543d eb0a a43e 2682 3539 72a7 eabe
00000060: d4de b5be a0cb 82b9 637c 03bd 25d0 50be
00000070: 0034 89ba fc8f b6b8 1265 673f ab36 adbd
00000080: 6c4b e4bd 28e9 21bf 9fab 90b9 de09 ab3e
00000090: 4236 c9be a4a5 b73e 5e68 a4b4 b5ed 033e
000000a0: ae7d d4b9 00e5 e43f fd12 b23d e294 43be
000000b0: c086 f7bd 746c 7e3f 9066 a5bd 0f1d f1b9
000000c0: 12e9 e5bc 15bf 39be 7f38 97bd 695f c83e
000000d0: c872 3ebe b053 e43e f926 2cbf ea52 1f3f
000000e0: 82ce 4db9 8866 223e b93d 0cb9 cb21 cab9
000000f0: 903a 8cb6 825a b1bd 13a8 2cbe 96a7 f23d
00000100: 88da 6e3b 96bd 293a f772 9eb7 14ad 22bf

Const1 f4 [68]
-0.03405352 0.044836912 0.076779716 -0.05422176 0.28170198 0.14069983 0.122854955 -0.3551518
-0.19759661 0.22093375 0.3942933 0.7528214 0.73274374 0.06186017 0.38600639 0.6901483
0.67072433 0.19635232 -0.023656124 -0.13826843 -0.0655011 0.22187518 -0.18458399 0.30847538
-0.17044975 0.70384914 0.17835042 -0.22531475 0.27100164 -0.37585616 0.22405991 2.800652
1.8370863 0.7191215 1.0388767 0.95331293 1.3852448 1.2755127 1.6087819 1.6417325
0.72740555 0.75973266 0.3663683 0.19670513 1.6152587 -0.23441635 0.8924919 0.24198374
0.3416102 0.33952376 -0.014290682 0.11591763 0.15459359 0.37652776 0.10501728 0.33824265
-0.13088919 0.46036366 0.32656512 0.0062707993 0.1861058 0.124194786 -0.30149317 0.01931353
-0.03988934 -0.16061406 1.9430506 4.973525
00000000: b47b 0bbd e9a6 373d af3e 9d3d a317 5ebd
00000010: 3e3b 903e 9e13 103e 619b fb3d 75d6 b5be
00000020: c456 4abe 753c 623e d0e0 c93e e7b8 403f
00000030: 1895 3b3f 1761 7d3d a1a2 c53e 8fad 303f
00000040: 97b4 2b3f 9510 493e 7dca c1bc 3d96 0dbe
00000050: 7125 86bd 3f33 633e 9603 3dbe 7cf0 9d3e
00000060: 618a 2ebe 752f 343f 7ea1 363e e9b8 66be
00000070: bac0 8a3e 3870 c0be f66f 653e e23d 3340
00000080: a525 eb3f 5918 383f e9f9 843f 510c 743f
00000090: b44f b13f 0044 a33f 91ec cd3f 4a24 d23f
000000a0: 4037 3a3f d77d 423f a094 bb3e 126d 493e
000000b0: ccc0 ce3f d70a 70be 597a 643f 96ca 773e
000000c0: 88e7 ae3e 0fd6 ad3e 7723 6abc 3966 ed3d
000000d0: c84d 1e3e 3fc8 c03e 4d13 d73d 242e ad3e
000000e0: d107 06be c9b4 eb3e 8b33 a73e 477b cd3b
000000f0: 8592 3e3e d659 fe3d 505d 9abe 6837 9e3c
00000100: 0163 23bd 0378 24be e2b5 f83f 1e27 9f40

convolution i1 [64, 3, 3, 3]
-83 -33 26 -127 -94 -39 -27 5
46 -40 -4 44 -27 3 48 -17
8 50 -20 10 44 -37 -16 21
11 36 71 8 65 87 5 38
40 28 44 46 57 91 127 -21
-3 11 -14 -16 -9 1 29 69
-12 22 41 -35 -41 -36 0 0
0 0 0 0 0 0 0 0
0 0 0 0 0 0 0 0
0 0 0 0 0 0 0 0
0 0 0 0 0 0 0 0
0 0 0 0 0 0 0 0
0 0 0 0 0 0 0 0
0 0 0 0 88 -22 -88 -12
-32 -37 -64 8 54 37 -62 -106
-32 -25 -21 -24 91 127 37 -61
-90 19 35 49 -37 57 110 0
0 0 0 0 0 0 0 0
0 0 0 0 0 0 0 0
0 0 0 0 0 0 0 0
0 0 63 17 1 40 -31 -9
50 -73 -35 14 40 26 -1 9
47 -124 -127 -81 -99 -41 -16 -105
-47 18 -87 -15 24 -26 37 11
4 38 26 -16 -29 5 22 71
45 38 53 11 -29 -127 -30 15
68 17 -28 -12 -51 -11 -75 -25
6 25 32 16 -5 -20 30 16
-11 -48 0 10 16 10 2 48
9 -7 -127 -77 -29 -2 5 8
49 8 -6 -18 58 104 24 -127
-103 40 -58 -45 -16 98 113 -61
00000000: addf 1a81 a2d9 e505 2ed8 fc2c e503 30ef
00000010: 0832 ec0a 2cdb f015 0b24 4708 4157 0526
00000020: 281c 2c2e 395b 7feb fd0b f2f0 f701 1d45
00000030: f416 29dd d7dc 0000 0000 0000 0000 0000
00000040: 0000 0000 0000 0000 0000 0000 0000 0000
00000050: 0000 0000 0000 0000 0000 0000 0000 0000
00000060: 0000 0000 0000 0000 0000 0000 58ea a8f4
00000070: e0db c008 3625 c296 e0e7 ebe8 5b7f 25c3
00000080: a613 2331 db39 6e00 0000 0000 0000 0000
00000090: 0000 0000 0000 0000 0000 0000 0000 0000
000000a0: 0000 3f11 0128 e1f7 32b7 dd0e 281a ff09
000000b0: 2f84 81af 9dd7 f097 d112 a9f1 18e6 250b
000000c0: 0426 1af0 e305 1647 2d26 350b e381 e20f
000000d0: 4411 e4f4 cdf5 b5e7 0619 2010 fbec 1e10
000000e0: f5d0 000a 100a 0230 09f9 81b3 e3fe 0508
000000f0: 3108 faee 3a68 1881 9928 c6d3 f062 71c3

convolution_1 i1 [32, 1, 1, 64]
-38 -16 0 0 -34 0 127 19
35 11 0 28 -5 15 -94 0
0 -6 0 -107 0 13 44 -118
36 0 0 0 1 0 8 12
27 -24 -40 0 0 0 0 0
3 46 0 -73 -8 0 0 -5
-42 0 -31 0 -8 15 0 4
0 0 0 0 0 0 0 0
13 -39 0 0 -53 0 -46 -38
-20 -27 0 22 -88 39 -42 0
0 9 0 -3 0 -99 127 32
104 0 0 0 2 0 52 63
27 5 79 0 0 0 0 0
77 59 0 42 -38 0 0 78
14 0 -16 0 -62 34 0 -40
0 0 0 0 0 0 0 0
51 23 0 0 -103 0 -54 -127
15 0 0 33 11 -46 -7 0
0 64 0 46 0 64 -54 -9
6 0 0 0 5 0 53 18
74 12 13 0 0 0 0 0
1 -52 0 -105 62 0 0 2
21 0 -70 0 24 -37 0 -9
0 0 0 0 0 0 0 0
13 8 0 0 36 0 19 55
-49 3 0 26 -33 48 -12 0
0 -19 0 -47 0 -36 37 -8
-66 0 0 0 4 0 41 45
-31 33 -55 0 0 0 0 0
127 -50 0 -12 111 0 0 66
-64 0 -15 0 8 17 0 -3
0 0 0 0 0 0 0 0
00000000: daf0 0000 de00 7f13 230b 001c fb0f a200
00000010: 00fa 0095 000d 2c8a 2400 0000 0100 080c
00000020: 1be8 d800 0000 0000 032e 00b7 f800 00fb
00000030: d600 e100 f80f 0004 0000 0000 0000 0000
00000040: 0dd9 0000 cb00 d2da ece5 0016 a827 d600
00000050: 0009 00fd 009d 7f20 6800 0000 0200 343f
00000060: 1b05 4f00 0000 0000 4d3b 002a da00 004e
00000070: 0e00 f000 c222 00d8 0000 0000 0000 0000
00000080: 3317 0000 9900 ca81 0f00 0021 0bd2 f900
00000090: 0040 002e 0040 caf7 0600 0000 0500 3512
000000a0: 4a0c 0d00 0000 0000 01cc 0097 3e00 0002
000000b0: 1500 ba00 18db 00f7 0000 0000 0000 0000
000000c0: 0d08 0000 2400 1337 cf03 001a df30 f400
000000d0: 00ed 00d1 00dc 25f8 be00 0000 0400 292d
000000e0: e121 c900 0000 0000 7fce 00f4 6f00 0042
000000f0: c000 f100 0811 00fd 0000 0000 0000 0000

convolution_2 i1 [32, 3, 1, 32]
-9 73 44 80 55 -22 43 77
14 1 16 47 34 -30 6 22
59 -18 -24 69 -48 92 24 -32
24 53 -7 10 50 74 69 71
-56 16 29 -43 16 -48 86 -8
38 -23 10 32 15 9 12 -11
-21 -34 55 -11 6 14 -28 -56
-68 8 -35 80 50 -66 1 -30
-127 10 43 -47 2 -22 20 -55
25 -37 25 38 -13 33 -19 -45
-17 42 12 42 94 -60 -96 -27
-105 -4 -42 35 4 -53 -53 -117
-26 -18 52 45 -95 96 -47 54
-15 -51 62 26 -13 19 79 -47
55 -15 -29 14 44 51 106 -1
-52 -79 -38 -15 -43 37 -47 28
118 -52 34 5 -84 -27 -68 6
-13 -17 59 -35 21 40 -55 28
110 -33 -9 51 0 12 -94 8
36 -52 21 47 51 -18 -7 -79
108 -12 -4 3 -22 -31 -35 -91
6 62 -52 -3 42 44 -60 73
19 -14 -24 -27 -55 -8 -127 68
10 34 26 -15 43 54 -8 -52
-14 -13 23 57 -42 50 13 25
-30 22 61 44 -44 29 19 4
60 68 5 107 11 -38 -7 -18
-18 -22 3 96 36 -63 22 -38
-15 -68 -79 46 -69 34 -37 42
13 26 68 13 0 -1 -6 -35
82 51 0 4 42 -3 101 -53
-37 -32 19 -20 -60 -83 44 -9
00000000: f749 2c50 37ea 2b4d 0e01 102f 22e2 0616
00000010: 3bee e845 d05c 18e0 1835 f90a 324a 4547
00000020: c810 1dd5 10d0 56f8 26e9 0a20 0f09 0cf5
00000030: ebde 37f5 060e e4c8 bc08 dd50 32be 01e2
00000040: 810a 2bd1 02ea 14c9 19db 1926 f321 edd3
00000050: ef2a 0c2a 5ec4 a0e5 97fc d623 04cb cb8b
00000060: e6ee 342d a160 d136 f1cd 3e1a f313 4fd1
00000070: 37f1 e30e 2c33 6aff ccb1 daf1 d525 d11c
00000080: 76cc 2205 ace5 bc06 f3ef 3bdd 1528 c91c
00000090: 6edf f733 000c a208 24cc 152f 33ee f9b1
000000a0: 6cf4 fc03 eae1 dda5 063e ccfd 2a2c c449
000000b0: 13f2 e8e5 c9f8 8144 0a22 1af1 2b36 f8cc
000000c0: f2f3 1739 d632 0d19 e216 3d2c d41d 1304
000000d0: 3c44 056b 0bda f9ee eeea 0360 24c1 16da
000000e0: f1bc b12e bb22 db2a 0d1a 440d 00ff fadd
000000f0: 5233 0004 2afd 65cb dbe0 13ec c4ad 2cf7

convolution_3 i1 [32, 1, 3, 32]
3 55 -1 -41 31 40 -38 26
4 1 -66 9 11 40 49 -57
44 45 19 -10 0 4 -11 -107
40 -9 33 -7 -32 -3 -34 23
-20 42 -17 3 1 5 37 18
-3 -7 -17 10 24 -12 35 2
-42 -13 0 7 0 7 -6 -13
14 -27 -18 -35 6 -4 31 -26
-12 -27 -23 53 -22 -9 50 2
13 -13 90 13 -5 44 -51 17
-26 -31 -2 -7 0 -40 -56 127
-9 9 10 -8 18 1 44 -26
-3 13 31 9 12 -45 -31 50
-17 -17 75 13 3 -39 -27 12
30 -4 43 104 0 -127 -29 -52
-9 -18 27 51 -50 48 83 75
11 37 9 7 5 -19 40 24
4 2 13 -11 -23 -22 -19 -25
-11 12 -39 -23 0 -73 11 -16
19 -6 1 0 -43 32 55 -25
-24 -4 -3 34 -47 67 -22 -57
-16 38 32 5 -40 31 22 32
53 -57 -1 -19 0 -110 -18 -26
14 62 -53 55 52 -33 25 -9
11 -28 -69 12 1 -13 -67 29
-43 -25 127 24 76 -90 13 -17
-2 -85 24 -33 0 -6 -18 49
-31 -36 -43 1 -16 78 69 -23
-1 -70 58 8 -13 33 -27 23
6 1 30 12 -60 -10 5 -10
-23 -57 -79 -38 0 25 17 15
-9 -43 25 0 -34 12 39 -46
00000000: 0337 ffd7 1f28 da1a 0401 be09 0b28 31c7
00000010: 2c2d 13f6 0004 f595 28f7 21f9 e0fd de17
00000020: ec2a ef03 0105 2512 fdf9 ef0a 18f4 2302
00000030: d6f3 0007 0007 faf3 0ee5 eedd 06fc 1fe6
00000040: f4e5 e935 eaf7 3202 0df3 5a0d fb2c cd11
00000050: e6e1 fef9 00d8 c87f f709 0af8 1201 2ce6
00000060: fd0d 1f09 0cd3 e132 efef 4b0d 03d9 e50c
00000070: 1efc 2b68 0081 e3cc f7ee 1b33 ce30 534b
00000080: 0b25 0907 05ed 2818 0402 0df5 e9ea ede7
00000090: f50c d9e9 00b7 0bf0 13fa 0100 d520 37e7
000000a0: e8fc fd22 d143 eac7 f026 2005 d81f 1620
000000b0: 35c7 ffed 0092 eee6 0e3e cb37 34df 19f7
000000c0: 0be4 bb0c 01f3 bd1d d5e7 7f18 4ca6 0def
000000d0: feab 18df 00fa ee31 e1dc d501 f04e 45e9
000000e0: ffba 3a08 f321 e517 0601 1e0c c4f6 05f6
000000f0: e9c7 b1da 0019 110f f7d5 1900 de0c 27d2

convolution_4 i1 [128, 1, 1, 32]
127 -10 -38 -44 13 -89 22 -49
-96 -7 1 -76 22 12 33 -74
26 99 -66 11 55 -7 20 -109
-20 44 -25 25 -72 -40 113 5
-91 -83 -14 -14 -20 8 61 -75
-72 34 56 10 -36 -73 3 -8
65 -10 42 55 -44 30 -25 -35
-69 29 -35 19 -18 127 -24 -52
0 0 0 0 0 0 0 0
0 0 0 0 0 0 0 0
0 0 0 0 0 0 0 0
0 0 0 0 0 0 0 0
21 -47 -20 -46 30 -29 -7 49
27 28 -16 -16 -17 -68 -16 -29
30 11 -44 43 -29 9 127 20
40 -35 15 30 -28 -3 5 -43
48 4 -27 95 6 21 7 19
-32 -57 43 -71 -21 -27 -62 33
15 -56 39 -43 8 -29 18 -82
-36 -50 -44 -8 -34 -8 127 -72
0 0 0 0 0 0 0 0
0 0 0 0 0 0 0 0
0 0 0 0 0 0 0 0
0 0 0 0 0 0 0 0
-61 -56 76 15 -12 24 58 0
71 -46 -44 -28 -17 -41 -76 33
-60 3 -32 -100 -69 -17 -40 25
13 23 -62 -63 -4 3 -8 127
68 69 -76 22 92 19 20 -66
-63 -47 -24 -3 -62 -20 33 12
-80 -4 -13 -89 52 63 -51 -98
-110 -87 -28 50 16 -27 127 -88
00000000: 7ff6 dad4 0da7 16cf a0f9 01b4 160c 21b6
00000010: 1a63 be0b 37f9 1493 ec2c e719 b8d8 7105
00000020: a5ad f2f2 ec08 3db5 b822 380a dcb7 03f8
00000030: 41f6 2a37 d41e e7dd bb1d dd13 ee7f e8cc
00000040: 0000 0000 0000 0000 0000 0000 0000 0000
00000050: 0000 0000 0000 0000 0000 0000 0000 0000
00000060: 15d1 ecd2 1ee3 f931 1b1c f0f0 efbc f0e3
00000070: 1e0b d42b e309 7f14 28dd 0f1e e4fd 05d5
00000080: 3004 e55f 0615 0713 e0c7 2bb9 ebe5 c221
00000090: 0fc8 27d5 08e3 12ae dcce d4f8 def8 7fb8
000000a0: 0000 0000 0000 0000 0000 0000 0000 0000
000000b0: 0000 0000 0000 0000 0000 0000 0000 0000
000000c0: c3c8 4c0f f418 3a00 47d2 d4e4 efd7 b421
000000d0: c403 e09c bbef d819 0d17 c2c1 fc03 f87f
000000e0: 4445 b416 5c13 14be c1d1 e8fd c2ec 210c
000000f0: b0fc f3a7 343f cd9e 92a9 e432 10e5 7fa8

convolution_5 i1 [64, 1, 1, 64]
33 0 26 -70 2 0 -15 -17
0 0 25 12 -59 0 0 34
76 19 17 50 0 0 -25 16
-127 -52 0 33 52 -22 -29 -4
0 0 0 27 0 0 18 104
33 0 43 0 58 -25 0 0
0 120 66 33 43 57 0 -28
23 81 -55 -7 0 28 0 0
34 0 -47 127 -2 0 -27 -25
0 0 33 10 -3 0 0 2
-25 -28 -73 -8 0 -57 2 -96
63 -21 0 8 12 -32 48 20
0 0 0 8 0 0 -112 -39
32 0 48 0 48 20 0 0
0 -48 56 7 -9 74 0 114
56 0 7 -6 0 -1 0 0
-48 0 -96 23 126 0 17 -11
0 0 10 -82 -27 0 0 -33
29 -50 -47 16 0 -42 6 2
-39 -25 0 -19 -58 51 127 -1
0 0 0 -19 0 0 -16 44
35 0 -51 0 45 38 0 0
0 66 48 -45 -54 4 0 -60
37 -92 54 20 0 -30 0 0
58 0 -15 35 30 0 -8 -65
0 0 -33 23 9 0 0 96
3 -27 -10 -16 0 38 -9 8
-16 -46 0 -59 -9 49 -18 -51
0 0 0 -30 0 0 -40 42
-56 0 -1 0 -98 1 0 0
0 -13 -16 -8 39 3 0 2
-4 127 -54 -3 0 -54 0 0
00000000: 2100 1aba 0200 f1ef 0000 190c c500 0022
00000010: 4c13 1132 0000 e710 81cc 0021 34ea e3fc
00000020: 0000 001b 0000 1268 2100 2b00 3ae7 0000
00000030: 0078 4221 2b39 00e4 1751 c9f9 001c 0000
00000040: 2200 d17f fe00 e5e7 0000 210a fd00 0002
00000050: e7e4 b7f8 00c7 02a0 3feb 0008 0ce0 3014
00000060: 0000 0008 0000 90d9 2000 3000 3014 0000
00000070: 00d0 3807 f74a 0072 3800 07fa 00ff 0000
00000080: d000 a017 7e00 11f5 0000 0aae e500 00df
00000090: 1dce d110 00d6 0602 d9e7 00ed c633 7fff
000000a0: 0000 00ed 0000 f02c 2300 cd00 2d26 0000
000000b0: 0042 30d3 ca04 00c4 25a4 3614 00e2 0000
000000c0: 3a00 f123 1e00 f8bf 0000 df17 0900 0060
000000d0: 03e5 f6f0 0026 f708 f0d2 00c5 f731 eecd
000000e0: 0000 00e2 0000 d82a c800 ff00 9e01 0000
000000f0: 00f3 f0f8 2703 0002 fc7f cafd 00ca 0000
